data.pth (torch, 7703 bytes, 6 tensors)

l1.weight f4 [8, 108]
0.2110038 0.17570502 -0.46155438 0.18432592 0.15309088 -0.6027641 -0.2667711 -0.25050017
0.1280155 -0.35202044 -0.26318035 0.88732064 -0.53288484 0.018023029 -0.3740117 -0.15878747
-0.36891475 -0.59391904 -0.6026564 -0.60271794 0.79158396 0.51284784 -0.13563658 -0.37281337
0.20361295 -0.27210516 -0.13080145 -0.22609991 -0.6029009 0.18575083 -0.069309056 0.62893194
-0.66379017 -0.13327405 0.22680993 0.061107453 0.83455205 -0.10760679 0.056049332 0.2737286
-0.035803247 -0.6645497 -0.14623511 -0.51430005 -0.84029317 0.63039327 0.51345974 0.52269566
0.46611938 0.7222079 0.02093327 -0.15195563 -0.2298623 -0.1729034 0.2485054 0.24719998
-0.052632403 -0.66098714 0.7374836 0.6276381 0.7931223 -0.08842609 0.7673026 0.45338586
-0.60258126 0.5077938 0.23272364 0.18562815 0.2727984 -0.09131635 -0.58376324 -0.60248303
0.47164598 -0.17632632 0.93183225 -0.12814157 -0.534351 0.59362054 0.22219637 -0.6027106
-0.007240816 -0.36371443 -0.026085172 0.3359383 0.7553481 -0.07093692 -0.27260435 -0.21298009
1.2050598 -0.14680488 0.55798376 0.7077717 -0.3313014 0.2760058 0.31362152 -0.15796259
0.3093343 0.69491184 0.38218957 -0.19969387 -0.27301186 0.1530002 0.31987327 -0.08821714
0.52763677 0.34364164 -0.26956823 0.6952024 0.32388678 -0.2766541 0.42290413 0.29252058
0.5790268 0.8321838 1.0946009 0.27678278 -0.2627459 -0.11873425 0.47591728 -0.43399993
0.55639035 0.26252237 0.73773205 -1.0274608 -0.15859617 0.73821175 0.8147197 0.79081285
-0.8431792 -0.49702388 0.42717442 0.697849 0.4631745 0.7456166 0.5690942 -1.1429304
0.74014646 0.50783426 0.38783342 -0.88271934 1.1401771 0.2482145 -0.2910163 0.33825314
-0.18325672 0.29374266 0.2823473 -0.19551878 0.25919145 0.17014922 0.2919087 0.25161275
-0.49793562 0.45205352 0.35719815 0.32129213 0.35722235 -0.22223711 0.2690989 0.50037116
0.6387929 -0.5884868 -0.37329078 -0.024918668 0.33658352 -0.121563345 -0.8892143 0.31596527
-0.012220661 0.33729523 -0.24288286 -0.23018248 -0.34561142 -0.48975188 0.5898101 -0.16508062
1.1979246 0.24246958 -0.24114871 1.0295793 -0.33108857 0.39237705 -0.86465484 0.123434514
1.0506306 -0.5405237 -0.053537983 -0.34681994 0.86511254 -0.22510277 0.8528959 -0.21067818
-0.83866835 0.43108973 0.1815122 -0.9932637 -0.29261366 -0.104711145 0.3733773 -0.15657245
0.64862293 -0.19426416 0.38596883 0.24863149 -0.024984766 -0.5061884 0.14313006 -0.6627259
0.7349453 0.2310365 0.24485797 0.32865667 0.34840295 -0.20633096 0.29678452 0.39738005
-0.071680225 -0.2276479 0.030369943 0.44472706 0.36038017 0.22357005 -0.47748694 0.0010465333
-0.32902423 0.3031663 -0.36631885 0.9763936 -0.6755876 0.2866494 -0.66375744 0.9317469
-0.6538759 -0.06742345 -0.60421383 0.1419934 0.791249 0.76626295 0.22700638 -0.43444645
0.41435573 -0.87994224 -0.12720567 0.7803943 0.07358501 0.38351688 0.33839226 -0.60398513
-0.9896046 -0.15962046 0.4238125 0.5697516 0.1277123 -0.031405687 -0.1066839 0.55859035
00000000: 6111 583e 04ec 333e db50 ecbe efbf 3c3e
00000010: dbc3 1c3e c04e 1abf 3996 88be 8f41 80be
00000020: 7f16 033e 063c b4be 93bf 86be 7227 633f
00000030: 246b 08bf 08a5 933c 767e bfbe 2f99 22be
00000040: 65e2 bcbe 140b 18bf b147 1abf b94b 1abf
00000050: 3fa5 4a3f ff49 033f 51e4 0abe 65e1 bebe
00000060: ea7f 503e 5e51 8bbe d1f0 05be bc86 67be
00000070: b757 1abf 7735 3e3e e8f1 8dbd af01 213f
00000080: 27ee 29bf fe78 08be dd40 683e cf4b 7a3d
00000090: 34a5 553f f360 dcbd fc93 653d 2826 8c3e
000000a0: 6da6 12bd ee1f 2abf a8be 15be 2ba9 03bf
000000b0: 741d 57bf 7461 213f 1972 033f 62cf 053f
000000c0: 33a7 ee3e 9ee2 383f 407c ab3c 429a 1bbe
000000d0: 0661 6bbe 970d 31be 3378 7e3e fe21 7d3e
000000e0: 1395 57bd 7436 29bf bacb 3c3f e4ac 203f
000000f0: 100a 4b3f bd18 b5bd f16d 443f 3122 e83e
00000100: c442 1abf c6fe 013f 1b4f 6e3e 4e15 3e3e
00000110: 3bac 8b3e 1104 bbbd 8271 15bf 543c 1abf
00000120: 957b f13e e38e 34be 8f8c 6e3f 8b37 03be
00000130: 3acb 08bf 84f7 173f 7287 633e 3e4b 1abf
00000140: 5e44 edbb c738 babe 92b0 d5bc 1b00 ac3e
00000150: 7e5e 413f 6047 91bd cc92 8bbe 7417 5abe
00000160: 663f 9a3f 0554 16be 06d8 0e3f 8730 353f
00000170: 56a0 a9be a250 8d3e 0093 a03e f2c0 21be
00000180: 1161 9e3e bee5 313f 5aae c33e 8d7c 4cbe
00000190: 36c8 8bbe 16ac 1c3e 6ec6 a33e 30ab b4bd
000001a0: 3413 073f ccf1 af3e d904 8abe c9f8 313f
000001b0: 7dd4 a53e 9ba5 8dbe e486 d83e 42c5 953e
000001c0: 1a3b 143f ff09 553f e21b 8c3f 79b6 8d3e
000001d0: a186 86be f12a f3bd 6eab f33e 3d35 debe
000001e0: 996f 0e3f 5569 863e 02dc 3c3f d683 83bf
000001f0: 0967 22be 72fb 3c3f 7891 503f b672 4a3f
00000200: 98da 57bf ea79 febe 9bb6 da3e 3ba6 323f
00000210: 3525 ed3e bbe0 3e3f 28b0 113f 8b4b 92bf
00000220: 3d7a 3d3f 6d01 023f 1a92 c63e e5f9 61bf
00000230: 53f1 913f f12b 7e3e 1700 95be 842f ad3e
00000240: a6a7 3bbe 7065 963e d38f 903e 1336 48be
00000250: beb4 843e 993b 2e3e 0f75 953e 63d3 803e
00000260: 6bf1 febe 8f73 e73e ade2 b63e 6780 a43e
00000270: d9e5 b63e 2092 63be 55c7 893e 5318 003f
00000280: ee87 233f 12a7 16bf f81f bfbe 3c22 ccbc
00000290: ad54 ac3e 34f6 f8bd 8ca3 63bf 33c6 a13e
000002a0: 2b39 48bc f6b1 ac3e 49b6 78be f5b4 6bbe
000002b0: fbf3 b0be c2c0 fabe cbfd 163f e50a 29be
000002c0: 9855 993f f249 783e b0ef 76be 41c9 833f
000002d0: 7184 a9be a5e5 c83e 055a 5dbf 3ccb fc3d
000002e0: 107b 863f c35f 0abf a54a 5bbd 6292 b1be
000002f0: 0478 5d3f 5781 66be 6357 5a3f 05bc 57be
00000300: f8b2 56bf cbb7 dc3e 56de 393e 8846 7ebf
00000310: 75d1 95be cc72 d6bd 4f2b bf3e 8754 20be
00000320: 270c 263f 2fed 46be b59d c53e 4199 7e3e
00000330: daac ccbc 9095 01bf b090 123e 68a8 29bf
00000340: 6025 3c3f d594 6c3e 0cbc 7a3e b045 a83e
00000350: df61 b23e 6c48 53be 24f4 973e 6675 cb3e
00000360: 15cd 92bd 881c 69be 63ca f83c 44b3 e33e
00000370: c083 b83e 8cef 643e 2b79 f4be d52b 893a
00000380: dd75 a8be 9d38 9b3e 258e bbbe eef4 793f
00000390: 4ff3 2cbf b6c3 923e 02ec 29bf f786 6e3f
000003a0: 6964 27bf 4e15 8abd c2ad 1abf b866 113e
000003b0: 4b8f 4a3f cf29 443f 5c74 683e c46f debe
000003c0: 6f26 d43e e543 61bf 3442 02be ecc7 473f
000003d0: bdb3 963d 535c c43e c041 ad3e c59e 1abf
000003e0: ba56 7dbf 8c73 23be f4fd d83e 3edb 113f
000003f0: 03c7 023e 40a3 00bd 177d dabd c7ff 0e3f

l1.bias f4 [8]
0.60261786 1.3135957 0.60403705 0.70332515 0.8080575 0.78088236 0.9190008 0.7444996
00000000: 2a45 1a3f e723 a83f 2ca2 1a3f 1e0d 343f
00000010: dbdc 4e3f e8e7 473f a343 6b3f 8797 3e3f

l2.weight f4 [8, 8]
-1.602311 0.40441617 -1.4277642 1.5406027 0.34293497 1.0332159 0.5147801 1.4937377
2.0734022 -0.86182463 1.7044569 0.7240539 1.4571735 -0.7979131 2.216304 0.564298
-1.6361041 1.6197408 0.9933155 0.45734358 0.050985634 -0.47877416 -1.2998589 1.537169
-0.7355366 0.34888798 -1.0794089 1.6718358 0.78804356 1.87408 -1.0378941 0.50425005
0.6368729 -1.2199773 1.0442506 1.0989938 0.33819395 1.0588138 0.55329204 1.7011722
1.7585583 0.82724935 0.36974412 -0.059989925 -1.9205579 2.369115 -0.029672572 0.94082505
0.25824684 0.41578558 1.9741029 1.3400735 1.894612 -0.33582032 1.8903723 -1.6382757
-1.0898709 2.3156152 -0.91112584 -1.4319296 0.9929724 -0.43381917 1.1474022 0.029815942
00000000: 8718 cdbf a30f cf3e fac0 b6bf 7832 c53f
00000010: 2c95 af3e 6b40 843f a1c8 033f cc32 bf3f
00000020: 9fb2 0440 8aa0 5cbf a52b da3f 995b 393f
00000030: a984 ba3f 0844 4cbf edd7 0d40 d575 103f
00000040: dc6b d1bf ab53 cf3f ed49 7e3f f028 ea3e
00000050: 50d6 503d e321 f5be c761 a6bf f4c1 c43f
00000060: 204c 3cbf 72a1 b23e 122a 8abf b7fe d53f
00000070: 39bd 493f dae1 ef3f b7d9 84bf 8816 013f
00000080: 1a0a 233f 3728 9cbf 01aa 853f d4ab 8c3f
00000090: c227 ad3e 3687 873f 8ca4 0d3f 03c0 d93f
000000a0: 7018 e13f 9dc6 533f 1a4f bd3e ffb7 75bd
000000b0: d7d4 f5bf 959f 1740 e513 f3bc e9d9 703f
000000c0: ee38 843e d9e1 d43e 67af fc3f 8787 ab3f
000000d0: a582 f23f a4f0 abbe b8f7 f13f 05b3 d1bf
000000e0: e480 8bbf 0a33 1440 8b3f 69bf 7849 b7bf
000000f0: 7033 7e3f 8c1d debe 13de 923f 9040 f43c

l2.bias f4 [8]
0.26621345 0.59123915 0.46552896 0.09419417 0.049419202 0.74502033 0.39768982 1.2523633
00000000: 214d 883e 735b 173f d059 ee3e dfe8 c03d
00000010: ca6b 4a3d a7b9 3e3f 009e cb3e 714d a03f

l3.weight f4 [14, 8]
0.3869967 -0.18802533 0.29313403 -2.3166733 -1.1673948 0.39261052 -1.118911 1.0669098
0.124688275 0.099358596 0.75789016 -0.17033844 0.30764842 -0.9890788 -1.193149 -0.12472731
-0.22113365 -1.0287689 -0.28168884 0.59401 -0.7725702 0.5550507 0.47399566 -0.8043365
-0.4033093 -0.10469791 0.09411949 -2.0286722 -2.9326727 -2.7482636 0.6830632 1.2543081
0.3840411 -2.381422 0.53064334 0.4486793 -0.6298075 0.27408132 -1.8753821 0.6855417
0.43832156 -0.16141061 -2.066415 0.82874846 0.4510385 0.063926935 -0.8205796 -1.4559762
0.1663659 -1.040601 0.37750682 0.637757 -2.6534505 -1.3715229 0.29795173 0.5282392
-0.4862693 0.39878199 -1.6282159 -2.147842 0.37794703 0.61140597 -0.13680692 -1.2283529
-2.0137966 0.537974 -2.7089589 -1.4429023 -1.3062079 -0.17443489 0.4181006 0.9889394
0.4996296 -1.473141 0.19862854 0.5775948 0.38577452 0.51323974 -1.7420219 -1.7437279
-1.5826372 0.84853595 0.036454342 -1.7735683 -0.22541358 -1.7718768 0.9136611 -1.5021791
-0.52868444 0.024109725 -1.5201089 -0.2519338 0.34884775 1.2769862 -2.8242233 -0.8117935
0.5826606 0.32551733 -1.149746 0.006285914 -0.6667284 -2.539618 0.35356486 0.080351435
0.2873733 0.41122285 -0.35749635 -0.30896232 0.5068884 -1.3491764 0.13523082 -2.2667868
00000000: 6e24 c63e b689 40be aa15 963e 6044 14c0
00000010: 316d 95bf 3f04 c93e 7a38 8fbf 8090 883f
00000020: 915c ff3d 857c cb3d 1705 423f 336d 2ebe
00000030: 1884 9d3e 4534 7dbf 1bb9 98bf 0871 ffbd
00000040: dc70 62be b3ae 83bf 8539 90be 0a11 183f
00000050: 29c7 45bf cd17 0e3f 8faf f23e ffe8 4dbf
00000060: 8e7e cebe dc6b d6bd b8c1 c03d c4d5 01c0
00000070: e9b0 3bc0 8de3 2fc0 3bdd 2e3f 2b8d a03f
00000080: 09a1 c43e 3869 18c0 3ed8 073f 4bb9 e53e
00000090: 103b 21bf 6354 8c3e 850c f0bf a97f 2f3f
000000a0: af6b e03e d348 25be 2540 04c0 dc28 543f
000000b0: 85ee e63e 20ec 823d 8111 52bf 6e5d babf
000000c0: d35b 2a3e 6a32 85bf 9348 c13e 0b44 233f
000000d0: 22d2 29c0 108e afbf 218d 983e af3a 073f
000000e0: 4af8 f8be 272d cc3e 6169 d0bf 3e76 09c0
000000f0: 4682 c13e 1a85 1c3f 1d17 0cbe ab3a 9dbf
00000100: 0be2 00c0 aab8 093f 955f 2dc0 06b1 b8bf
00000110: d231 a7bf 0f9f 32be 4811 d63e 222b 7d3f
00000120: 73cf ff3e e28f bcbf 4865 4b3e 41dd 133f
00000130: 3d84 c53e ae63 033f 93fa debf 7a32 dfbf
00000140: db93 cabf a739 593f 2651 153d 4904 e3bf
00000150: d1d2 66be dccc e2bf b2e5 693f 6847 c0bf
00000160: dd57 07bf c281 c53c ee92 c2bf 78fd 80be
00000170: 2c9c b23e 4974 a33f 13c0 34c0 b3d1 4fbf
00000180: 3f29 153f 35aa a63e e02a 93bf 12fa cd3b
00000190: b6ae 2abf 1a89 22c0 7406 b53e 4b8f a43d
000001a0: 9822 933e cd8b d23e c309 b7be 4f30 9ebe
000001b0: 70c3 013f d0b1 acbf f379 0a3e 0913 11c0

l3.bias f4 [14]
0.03546558 0.16800623 -0.13591854 0.09311642 -0.33533993 -0.047873966 -0.28511262 -0.047488093
0.100544184 0.13028596 0.27868572 0.5634384 0.07433639 -0.37805244
00000000: 5b44 113d d309 2c3e 3b2e 0bbe d2b3 be3d
00000010: adb1 abbe 7e17 44bd 48fa 91be e082 42bd
00000020: 1cea cd3d af69 053e e5af 8e3e 803d 103f
00000030: ad3d 983d 1790 c1be
